…
rapper.py:119] From /usr/local/lib/python3.6/dist-packages/keras/backend/tensorflow_backend.py:517: The name tf.placeholder is deprecated. Please use tf.compat.v1.placeholder instead. W0823 12:23:57.044422 140499755456384 deprecation_wrapper.py:119] From /usr/local/lib/python3.6/dist-packages/keras/optimizers.py:790: The name tf.train.Optimizer is deprecated. Please use tf.compat.v1.train.Optimizer instead. . _________________________________________________________________ Layer (type) Output Shape Param # ================================================================= input_1 (InputLayer) (None, 128, 128, 3) 0 _________________________________________________________________ d_c1 (Conv2D) (None, 64, 64, 64) 3136 _________________________________________________________________ lr1 (LeakyReLU) (None, 64, 64, 64) 0 _________________________________________________________________ d_c3 (Conv2D) (None, 32, 32, 256) 262400 _________________________________________________________________ iN3 (InstanceNormalization) (None, 32, 32, 256) 512 _________________________________________________________________ lr3 (LeakyReLU) (None, 32, 32, 256) 0 _________________________________________________________________ d_c4 (Conv2D) (None, 16, 16, 512) 2097664 _________________________________________________________________ iN4 (InstanceNormalization) (None, 16, 16, 512) 1024 _________________________________________________________________ lr4 (LeakyReLU) (None, 16, 16, 512) 0 _________________________________________________________________ d_c5 (Conv2D) (None, 16, 16, 1) 8193 ================================================================= Total params: 2,372,929 Trainable params: 2,372,929 Non-trainable params: 0 _________________________________________________________________ . function to add padding . def padd3(input_): import tensorflow as tf return tf.pad(input_, [[0, 0], [3, 3], [3, 3], [0, 0]], &quot;REFLECT&quot;) def padd1(input_): import tensorflow as tf 
…
&#39;)(iNorm(d2,name=&#39;g_d2_bn&#39;)) d2 = Lambda(padd3)(d2)#(tf.pad(d2, [[0, 0], [3, 3], [3, 3], [0, 0]], &quot;REFLECT&quot;)) d3=conv2d(d2, 3 , 7, 1, padding=&#39;VALID&#39;, name=&#39;g_pred_c&#39;) pred=Activation(&#39;tanh&#39;)(d3) model=Model(input_,pred) return model . gen=build_generator(dataA[0].shape) gen.summary() . __________________________________________________________________________________________________ Layer (type) Output Shape Param # Connected to ================================================================================================== input_3 (InputLayer) (None, 128, 128, 3) 0 __________________________________________________________________________________________________ lambda_20 (Lambda) (None, 134, 134, 3) 0 input_3[0][0] __________________________________________________________________________________________________ g_e1_c (Conv2D) (None, 128, 128, 64) 9472 lambda_20[0][0] __________________________________________________________________________________________________ g_e1_bn (InstanceNormalization) (None, 128, 128, 64) 128 g_e1_c[0][0] __________________________________________________________________________________________________ activation_4 (Activation) (None, 128, 128, 64) 0 g_e1_bn[0][0] __________________________________________________________________________________________________ g_e2_c (Conv2D) (None, 64, 64, 128) 73856 activation_4[0][0] __________________________________________________________________________________________________ g_e2_bn (InstanceNormalization) (None, 64, 64, 128) 256 g_e2_c[0][0] __________________________________________________________________________________________________ activation_5 (Activation) (None, 64, 64, 128) 0 g_e2_bn[0][0] __________________________________________________________________________________________________ g_e3_c (Conv2D) (None, 32, 32, 256) 295168 activation_5[0][0] __________________________________________________________________________________________________ g_e3_bn (InstanceNormalization) (None, 32, 32, 256) 512 g_e3_c[0][0] __________________________________________________________________________________________________ activation_6 (Activation) (None, 32, 32, 256) 0 g_e3_bn[0][0] __________________________________________________________________________________________________ lambda_21 (Lambda) (None, 34, 34, 256) 0 activation_6[0][0] __________________________________________________________________________________________________ g_r1_c1 (Conv2D) (None, 32, 32, 256) 590080 lambda_21[0][0] __________________________________________________________________________________________________ g_r1_iN1 (InstanceNormalization (None, 32, 32, 256) 512 g_r1_c1[0][0] __________________________________________________________________________________________________ lambda_22 (Lambda) (None, 34, 34, 256) 0 g_r1_iN1[0][0] __________________________________________________________________________________________________ g_r1_c2 (Conv2D) (None, 32, 32, 256) 590080 lambda_22[0][0] __________________________________________________________________________________________________ g_r1_iN2 (InstanceNormalization (None, 32, 32, 256) 512 g_r1_c2[0][0] __________________________________________________________________________________________________ add_10 (Add) (None, 32, 32, 256) 0 g_r1_iN2[0][0] activation_6[0][0] __________________________________________________________________________________________________ lambda_23 (Lambda) (None, 34, 34, 256) 0 add_10[0][0] __________________________________________________________________________________________________ g_r2_c1 (Conv2D) (None, 32, 32, 256) 590080 lambda_23[0][0] __________________________________________________________________________________________________ g_r2_iN1 (InstanceNormalization (None, 32, 32, 256) 512 g_r2_c1[0][0] __________________________________________________________________________________________________ lambda_24 (Lambda) (None, 34, 34, 256) 0 g_r2_iN1[0][0] __________________________________________________________________________________________________ g_r2_c2 (Conv2D) (None, 32, 32, 256) 590080 lambda_24[0][0] __________________________________________________________________________________________________ g_r2_iN2 (InstanceNormalization (None, 32, 32, 256) 512 g_r2_c2[0][0] __________________________________________________________________________________________________ add_11 (Add) (None, 32, 32, 256) 0 g_r2_iN2[0][0] add_10[0][0] __________________________________________________________________________________________________ lambda_25 (Lambda) (None, 34, 34, 256) 0 add_11[0][0] __________________________________________________________________________________________________ g_r3_c1 (Conv2D) (None, 32, 32, 256) 590080 lambda_25[0][0] __________________________________________________________________________________________________ g_r3_iN1 (InstanceNormalization (None, 32, 32, 256) 512 g_r3_c1[0][0] __________________________________________________________________________________________________ lambda_26 (Lambda) (None, 34, 34, 256) 0 g_r3_iN1[0][0] __________________________________________________________________________________________________ g_r3_c2 (Conv2D) (None, 32, 32, 256) 590080 lambda_26[0][0] __________________________________________________________________________________________________ g_r3_iN2 (InstanceNormalization (None, 32, 32, 256) 512 g_r3_c2[0][0] __________________________________________________________________________________________________ add_12 (Add) (None, 32, 32, 256) 0 g_r3_iN2[0][0] add_11[0][0] __________________________________________________________________________________________________ lambda_27 (Lambda) (None, 34, 34, 256) 0 add_12[0][0] __________________________________________________________________________________________________ g_r4_c1 (Conv2D) (None, 32, 32, 256) 590080 lambda_27[0][0] __________________________________________________________________________________________________ g_r4_iN1 (InstanceNormalization (None, 32, 32, 256) 512 g_r4_c1[0][0] __________________________________________________________________________________________________ lambda_28 (Lambda) (None, 34, 34, 256) 0 g_r4_iN1[0][0] __________________________________________________________________________________________________ g_r4_c2 (Conv2D) (None, 32, 32, 256) 590080 lambda_28[0][0] __________________________________________________________________________________________________ g_r4_iN2 (InstanceNormalization (None, 32, 32, 256) 512 g_r4_c2[0][0] __________________________________________________________________________________________________ add_13 (Add) (None, 32, 32, 256) 0 g_r4_iN2[0][0] add_12[0][0] __________________________________________________________________________________________________ lambda_29 (Lambda) (None, 34, 34, 256) 0 add_13[0][0] __________________________________________________________________________________________________ g_r5_c1 (Conv2D) (None, 32, 32, 256) 590080 lambda_29[0][0] __________________________________________________________________________________________________ g_r5_iN1 (InstanceNormalization (None, 32, 32, 256) 512 g_r5_c1[0][0] __________________________________________________________________________________________________ lambda_30 (Lambda) (None, 34, 34, 256) 0 g_r5_iN1[0][0] __________________________________________________________________________________________________ g_r5_c2 (Conv2D) (None, 32, 32, 256) 590080 lambda_30[0][0] __________________________________________________________________________________________________ g_r5_iN2 (InstanceNormalization (None, 32, 32, 256) 512 g_r5_c2[0][0] __________________________________________________________________________________________________ add_14 (Add) (None, 32, 32, 256) 0 g_r5_iN2[0][0] add_13[0][0] __________________________________________________________________________________________________ lambda_31 (Lambda) (None, 34, 34, 256) 0 add_14[0][0] __________________________________________________________________________________________________ g_r6_c1 (Conv2D) (None, 32, 32, 256) 590080 lambda_31[0][0] __________________________________________________________________________________________________ g_r6_iN1 (InstanceNormalization (None, 32, 32, 256) 512 g_r6_c1[0][0] __________________________________________________________________________________________________ lambda_32 (Lambda) (None, 34, 34, 256) 0 g_r6_iN1[0][0] __________________________________________________________________________________________________ g_r6_c2 (Conv2D) (None, 32, 32, 256) 590080 lambda_32[0][0] __________________________________________________________________________________________________ g_r6_iN2 (InstanceNormalization (None, 32, 32, 256) 512 g_r6_c2[0][0] __________________________________________________________________________________________________ add_15 (Add) (None, 32, 32, 256) 0 g_r6_iN2[0][0] add_14[0][0] __________________________________________________________________________________________________ lambda_33 (Lambda) (None, 34, 34, 256) 0 add_15[0][0] __________________________________________________________________________________________________ g_r7_c1 (Conv2D) (None, 32, 32, 256) 590080 lambda_33[0][0] __________________________________________________________________________________________________ g_r7_iN1 (InstanceNormalization (None, 32, 32, 256) 512 g_r7_c1[0][0] __________________________________________________________________________________________________ lambda_34 (Lambda) (None, 34, 34, 256) 0 g_r7_iN1[0][0] __________________________________________________________________________________________________ g_r7_c2 (Conv2D) (None, 32, 32, 256) 590080 lambda_34[0][0] __________________________________________________________________________________________________ g_r7_iN2 (InstanceNormalization (None, 32, 32, 256) 512 g_r7_c2[0][0] __________________________________________________________________________________________________ add_16 (Add) (None, 32, 32, 256) 0 g_r7_iN2[0][0] add_15[0][0] __________________________________________________________________________________________________ lambda_35 (Lambda) (None, 34, 34, 256) 0 add_16[0][0] __________________________________________________________________________________________________ g_r8_c1 (Conv2D) (None, 32, 32, 256) 590080 lambda_35[0][0] __________________________________________________________________________________________________ g_r8_iN1 (InstanceNormalization (None, 32, 32, 256) 512 g_r8_c1[0][0] __________________________________________________________________________________________________ lambda_36 (Lambda) (None, 34, 34, 256) 0 g_r8_iN1[0][0] __________________________________________________________________________________________________ g_r8_c2 (Conv2D) (None, 32, 32, 256) 590080 lambda_36[0][0] __________________________________________________________________________________________________ g_r8_iN2 (InstanceNormalization (None, 32, 32, 256) 512 g_r8_c2[0][0] __________________________________________________________________________________________________ add_17 (Add) (None, 32, 32, 256) 0 g_r8_iN2[0][0] add_16[0][0] __________________________________________________________________________________________________ lambda_37 (Lambda) (None, 34, 34, 256) 0 add_17[0][0] __________________________________________________________________________________________________ g_r9_c1 (Conv2D) (None, 32, 32, 256) 590080 lambda_37[0][0] __________________________________________________________________________________________________ g_r9_iN1 (InstanceNormalization (None, 32, 32, 256) 512 g_r9_c1[0][0] __________________________________________________________________________________________________ lambda_38 (Lambda) (None, 34, 34, 256) 0 g_r9_iN1[0][0] __________________________________________________________________________________________________ g_r9_c2 (Conv2D) (None, 32, 32, 256) 590080 lambda_38[0][0] __________________________________________________________________________________________________ g_r9_iN2 (InstanceNormalization (None, 32, 32, 256) 512 g_r9_c2[0][0] __________________________________________________________________________________________________ add_18 (Add) (None, 32, 32, 256) 0 g_r9_iN2[0][0] add_17[0][0] __________________________________________________________________________________________________ g_d1_dc (Conv2DTranspose) (None, 64, 64, 128) 295040 add_18[0][0] __________________________________________________________________________________________________ g_d1_bn (InstanceNormalization) (None, 64, 64, 128) 256 g_d1_dc[0][0] __________________________________________________________________________________________________ activation_7 (Activation) (None, 64, 64, 128) 0 g_d1_bn[0][0] __________________________________________________________________________________________________ g_d2_dc (Conv2DTranspose) (None, 128, 128, 64) 73792 activation_7[0][0] __________________________________________________________________________________________________ g_d2_bn (InstanceNormalization) (None, 128, 128, 64) 128 g_d2_dc[0][0] __________________________________________________________________________________________________ activation_8 (Activation) (None, 128, 128, 64) 0 g_d2_bn[0][0] __________________________________________________________________________________________________ lambda_39 (Lambda) (None, 134, 134, 64) 0 activation_8[0][0] __________________________________________________________________________________________________ g_pred_c (Conv2D) (None, 128, 128, 3) 9411 lambda_39[0][0] __________________________________________________________________________________________________ activation_9 (Activation) (None, 128, 128, 3) 0 g_pred_c[0][0] ================================================================================================== Total params: 11,388,675 Trainable params: 11,388,675 Non-trainable params: 0 __________________________________________________________________________________________________ . composite Model with two genartors and discriminator . def build_composite_model(g_model_1, d_model, g_mod
…
