…
W0823 12:23:57.044422 140499755456384 deprecation_wrapper.py:119] From /usr/local/lib/python3.6/dist-packages/keras/optimizers.py:790: The name tf.train.Optimizer is deprecated. Please use tf.compat.v1.train.Optimizer instead.

&lt;/pre&gt;
&lt;/div&gt;
&lt;/div&gt;

&lt;div class=&quot;output_area&quot;&gt;

&lt;div class=&quot;output_subarea output_stream output_stdout output_text&quot;&gt;
&lt;pre&gt;_________________________________________________________________
Layer (type)                 Output Shape              Param #   
=================================================================
input_1 (InputLayer)         (None, 128, 128, 3)       0         
_________________________________________________________________
d_c1 (Conv2D)                (None, 64, 64, 64)        3136      
_________________________________________________________________
lr1 (LeakyReLU)              (None, 64, 64, 64)        0         
_________________________________________________________________
d_c3 (Conv2D)                (None, 32, 32, 256)       262400    
_________________________________________________________________
iN3 (InstanceNormalization)  (None, 32, 32, 256)       512       
_________________________________________________________________
lr3 (LeakyReLU)              (None, 32, 32, 256)       0         
_________________________________________________________________
d_c4 (Conv2D)                (None, 16, 16, 512)       2097664   
_________________________________________________________________
iN4 (InstanceNormalization)  (None, 16, 16, 512)       1024      
_________________________________________________________________
lr4 (LeakyReLU)              (None, 16, 16, 512)       0         
_________________________________________________________________
d_c5 (Conv2D)                (None, 16, 16, 1)         8193      
=================================================================
Total params: 2,372,929
Trainable params: 2,372,929
Non-trainable params: 0
_________________________________________________________________
&lt;/pre&gt;
&lt;/div&gt;
&lt;/div&gt;

&lt;/div&gt;
&lt;/div&gt;

&lt;/div&gt;
    

&lt;div class=&quot;cell border-box-sizing text_cell rendered&quot;&gt;&lt;div class=&quot;inner_cell&quot;&gt;
…
&lt;/pre&gt;&lt;/div&gt;

    &lt;/div&gt;
&lt;/div&gt;
&lt;/div&gt;

&lt;div class=&quot;output_wrapper&quot;&gt;
&lt;div class=&quot;output&quot;&gt;

&lt;div class=&quot;output_area&quot;&gt;

&lt;div class=&quot;output_subarea output_stream output_stdout output_text&quot;&gt;
&lt;pre&gt;__________________________________________________________________________________________________
Layer (type)                    Output Shape         Param #     Connected to                     
==================================================================================================
input_3 (InputLayer)            (None, 128, 128, 3)  0                                            
__________________________________________________________________________________________________
lambda_20 (Lambda)              (None, 134, 134, 3)  0           input_3[0][0]                    
__________________________________________________________________________________________________
g_e1_c (Conv2D)                 (None, 128, 128, 64) 9472        lambda_20[0][0]                  
__________________________________________________________________________________________________
g_e1_bn (InstanceNormalization) (None, 128, 128, 64) 128         g_e1_c[0][0]                     
__________________________________________________________________________________________________
activation_4 (Activation)       (None, 128, 128, 64) 0           g_e1_bn[0][0]                    
__________________________________________________________________________________________________
g_e2_c (Conv2D)                 (None, 64, 64, 128)  73856       activation_4[0][0]               
__________________________________________________________________________________________________
g_e2_bn (InstanceNormalization) (None, 64, 64, 128)  256         g_e2_c[0][0]                     
__________________________________________________________________________________________________
activation_5 (Activation)       (None, 64, 64, 128)  0           g_e2_bn[0][0]                    
__________________________________________________________________________________________________
g_e3_c (Conv2D)                 (None, 32, 32, 256)  295168      activation_5[0][0]               
__________________________________________________________________________________________________
g_e3_bn (InstanceNormalization) (None, 32, 32, 256)  512         g_e3_c[0][0]                     
__________________________________________________________________________________________________
activation_6 (Activation)       (None, 32, 32, 256)  0           g_e3_bn[0][0]                    
__________________________________________________________________________________________________
lambda_21 (Lambda)              (None, 34, 34, 256)  0           activation_6[0][0]               
__________________________________________________________________________________________________
g_r1_c1 (Conv2D)                (None, 32, 32, 256)  590080      lambda_21[0][0]                  
__________________________________________________________________________________________________
g_r1_iN1 (InstanceNormalization (None, 32, 32, 256)  512         g_r1_c1[0][0]                    
__________________________________________________________________________________________________
lambda_22 (Lambda)              (None, 34, 34, 256)  0           g_r1_iN1[0][0]                   
__________________________________________________________________________________________________
g_r1_c2 (Conv2D)                (None, 32, 32, 256)  590080      lambda_22[0][0]                  
__________________________________________________________________________________________________
g_r1_iN2 (InstanceNormalization (None, 32, 32, 256)  512         g_r1_c2[0][0]                    
__________________________________________________________________________________________________
add_10 (Add)                    (None, 32, 32, 256)  0           g_r1_iN2[0][0]                   
                                                                 activation_6[0][0]               
__________________________________________________________________________________________________
lambda_23 (Lambda)              (None, 34, 34, 256)  0           add_10[0][0]                     
__________________________________________________________________________________________________
g_r2_c1 (Conv2D)                (None, 32, 32, 256)  590080      lambda_23[0][0]                  
__________________________________________________________________________________________________
g_r2_iN1 (InstanceNormalization (None, 32, 32, 256)  512         g_r2_c1[0][0]                    
__________________________________________________________________________________________________
lambda_24 (Lambda)              (None, 34, 34, 256)  0           g_r2_iN1[0][0]                   
__________________________________________________________________________________________________
g_r2_c2 (Conv2D)                (None, 32, 32, 256)  590080      lambda_24[0][0]                  
__________________________________________________________________________________________________
g_r2_iN2 (InstanceNormalization (None, 32, 32, 256)  512         g_r2_c2[0][0]                    
__________________________________________________________________________________________________
add_11 (Add)                    (None, 32, 32, 256)  0           g_r2_iN2[0][0]                   
                                                                 add_10[0][0]                     
__________________________________________________________________________________________________
lambda_25 (Lambda)              (None, 34, 34, 256)  0           add_11[0][0]                     
__________________________________________________________________________________________________
g_r3_c1 (Conv2D)                (None, 32, 32, 256)  590080      lambda_25[0][0]                  
__________________________________________________________________________________________________
g_r3_iN1 (InstanceNormalization (None, 32, 32, 256)  512         g_r3_c1[0][0]                    
__________________________________________________________________________________________________
lambda_26 (Lambda)              (None, 34, 34, 256)  0           g_r3_iN1[0][0]                   
__________________________________________________________________________________________________
g_r3_c2 (Conv2D)                (None, 32, 32, 256)  590080      lambda_26[0][0]                  
__________________________________________________________________________________________________
g_r3_iN2 (InstanceNormalization (None, 32, 32, 256)  512         g_r3_c2[0][0]                    
__________________________________________________________________________________________________
add_12 (Add)                    (None, 32, 32, 256)  0           g_r3_iN2[0][0]                   
                                                                 add_11[0][0]                     
__________________________________________________________________________________________________
lambda_27 (Lambda)              (None, 34, 34, 256)  0           add_12[0][0]                     
__________________________________________________________________________________________________
g_r4_c1 (Conv2D)                (None, 32, 32, 256)  590080      lambda_27[0][0]                  
__________________________________________________________________________________________________
g_r4_iN1 (InstanceNormalization (None, 32, 32, 256)  512         g_r4_c1[0][0]                    
__________________________________________________________________________________________________
lambda_28 (Lambda)              (None, 34, 34, 256)  0           g_r4_iN1[0][0]                   
__________________________________________________________________________________________________
g_r4_c2 (Conv2D)                (None, 32, 32, 256)  590080      lambda_28[0][0]                  
__________________________________________________________________________________________________
g_r4_iN2 (InstanceNormalization (None, 32, 32, 256)  512         g_r4_c2[0][0]                    
__________________________________________________________________________________________________
add_13 (Add)                    (None, 32, 32, 256)  0           g_r4_iN2[0][0]                   
                                                                 add_12[0][0]                     
__________________________________________________________________________________________________
lambda_29 (Lambda)              (None, 34, 34, 256)  0           add_13[0][0]                     
__________________________________________________________________________________________________
g_r5_c1 (Conv2D)                (None, 32, 32, 256)  590080      lambda_29[0][0]                  
__________________________________________________________________________________________________
g_r5_iN1 (InstanceNormalization (None, 32, 32, 256)  512         g_r5_c1[0][0]                    
__________________________________________________________________________________________________
lambda_30 (Lambda)              (None, 34, 34, 256)  0           g_r5_iN1[0][0]                   
__________________________________________________________________________________________________
g_r5_c2 (Conv2D)                (None, 32, 32, 256)  590080      lambda_30[0][0]                  
__________________________________________________________________________________________________
g_r5_iN2 (InstanceNormalization (None, 32, 32, 256)  512         g_r5_c2[0][0]                    
__________________________________________________________________________________________________
add_14 (Add)                    (None, 32, 32, 256)  0           g_r5_iN2[0][0]                   
                                                                 add_13[0][0]                     
__________________________________________________________________________________________________
lambda_31 (Lambda)              (None, 34, 34, 256)  0           add_14[0][0]                     
__________________________________________________________________________________________________
g_r6_c1 (Conv2D)                (None, 32, 32, 256)  590080      lambda_31[0][0]                  
__________________________________________________________________________________________________
g_r6_iN1 (InstanceNormalization (None, 32, 32, 256)  512         g_r6_c1[0][0]                    
__________________________________________________________________________________________________
lambda_32 (Lambda)              (None, 34, 34, 256)  0           g_r6_iN1[0][0]                   
__________________________________________________________________________________________________
g_r6_c2 (Conv2D)                (None, 32, 32, 256)  590080      lambda_32[0][0]                  
__________________________________________________________________________________________________
g_r6_iN2 (InstanceNormalization (None, 32, 32, 256)  512         g_r6_c2[0][0]                    
__________________________________________________________________________________________________
add_15 (Add)                    (None, 32, 32, 256)  0           g_r6_iN2[0][0]                   
                                                                 add_14[0][0]                     
__________________________________________________________________________________________________
lambda_33 (Lambda)              (None, 34, 34, 256)  0           add_15[0][0]                     
__________________________________________________________________________________________________
g_r7_c1 (Conv2D)                (None, 32, 32, 256)  590080      lambda_33[0][0]                  
__________________________________________________________________________________________________
g_r7_iN1 (InstanceNormalization (None, 32, 32, 256)  512         g_r7_c1[0][0]                    
__________________________________________________________________________________________________
lambda_34 (Lambda)              (None, 34, 34, 256)  0           g_r7_iN1[0][0]                   
__________________________________________________________________________________________________
g_r7_c2 (Conv2D)                (None, 32, 32, 256)  590080      lambda_34[0][0]                  
__________________________________________________________________________________________________
g_r7_iN2 (InstanceNormalization (None, 32, 32, 256)  512         g_r7_c2[0][0]                    
__________________________________________________________________________________________________
add_16 (Add)                    (None, 32, 32, 256)  0           g_r7_iN2[0][0]                   
                                                                 add_15[0][0]                     
__________________________________________________________________________________________________
lambda_35 (Lambda)              (None, 34, 34, 256)  0           add_16[0][0]                     
__________________________________________________________________________________________________
g_r8_c1 (Conv2D)                (None, 32, 32, 256)  590080      lambda_35[0][0]                  
__________________________________________________________________________________________________
g_r8_iN1 (InstanceNormalization (None, 32, 32, 256)  512         g_r8_c1[0][0]                    
__________________________________________________________________________________________________
lambda_36 (Lambda)              (None, 34, 34, 256)  0           g_r8_iN1[0][0]                   
__________________________________________________________________________________________________
g_r8_c2 (Conv2D)                (None, 32, 32, 256)  590080      lambda_36[0][0]                  
__________________________________________________________________________________________________
g_r8_iN2 (InstanceNormalization (None, 32, 32, 256)  512         g_r8_c2[0][0]                    
__________________________________________________________________________________________________
add_17 (Add)                    (None, 32, 32, 256)  0           g_r8_iN2[0][0]                   
                                                                 add_16[0][0]                     
__________________________________________________________________________________________________
lambda_37 (Lambda)              (None, 34, 34, 256)  0           add_17[0][0]                     
__________________________________________________________________________________________________
g_r9_c1 (Conv2D)                (None, 32, 32, 256)  590080      lambda_37[0][0]                  
__________________________________________________________________________________________________
g_r9_iN1 (InstanceNormalization (None, 32, 32, 256)  512         g_r9_c1[0][0]                    
__________________________________________________________________________________________________
lambda_38 (Lambda)              (None, 34, 34, 256)  0           g_r9_iN1[0][0]                   
__________________________________________________________________________________________________
g_r9_c2 (Conv2D)                (None, 32, 32, 256)  590080      lambda_38[0][0]                  
__________________________________________________________________________________________________
g_r9_iN2 (InstanceNormalization (None, 32, 32, 256)  512         g_r9_c2[0][0]                    
__________________________________________________________________________________________________
add_18 (Add)                    (None, 32, 32, 256)  0           g_r9_iN2[0][0]                   
                                                                 add_17[0][0]                     
__________________________________________________________________________________________________
g_d1_dc (Conv2DTranspose)       (None, 64, 64, 128)  295040      add_18[0][0]                     
__________________________________________________________________________________________________
g_d1_bn (InstanceNormalization) (None, 64, 64, 128)  256         g_d1_dc[0][0]                    
__________________________________________________________________________________________________
activation_7 (Activation)       (None, 64, 64, 128)  0           g_d1_bn[0][0]                    
__________________________________________________________________________________________________
g_d2_dc (Conv2DTranspose)       (None, 128, 128, 64) 73792       activation_7[0][0]               
__________________________________________________________________________________________________
g_d2_bn (InstanceNormalization) (None, 128, 128, 64) 128         g_d2_dc[0][0]                    
__________________________________________________________________________________________________
activation_8 (Activation)       (None, 128, 128, 64) 0           g_d2_bn[0][0]                    
__________________________________________________________________________________________________
lambda_39 (Lambda)              (None, 134, 134, 64) 0           activation_8[0][0]               
__________________________________________________________________________________________________
g_pred_c (Conv2D)               (None, 128, 128, 3)  9411        lambda_39[0][0]                  
__________________________________________________________________________________________________
activation_9 (Activation)       (None, 128, 128, 3)  0           g_pred_c[0][0]                   
==================================================================================================
Total params: 11,388,675
Trainable params: 11,388,675
Non-trainable params: 0
__________________________________________________________________________________________________
&lt;/pre&gt;
&lt;/div&gt;
&lt;/div&gt;

&lt;/div&gt;
&lt;/div&gt;

&lt;/div&gt;
…
&lt;div class=&quot; highlight hl-ipython3&quot;&gt;&lt;pre&gt;&lt;span&gt;&lt;/span&gt;&lt;span class=&quot;n&quot;&gt;model1&lt;/span&gt;&lt;span class=&quot;o&quot;&gt;.&lt;/span&gt;&lt;span class=&quot;n&quot;&gt;summary&lt;/span&gt;&lt;span class=&quot;p&quot;&gt;()&lt;/span&gt;
&lt;/pre&gt;&lt;/div&gt;

    &lt;/div&gt;
&lt;/div&gt;
&lt;/div&gt;

&lt;div class=&quot;output_wrapper&quot;&gt;
&lt;div class=&quot;output&quot;&gt;

&lt;div class=&quot;output_area&quot;&gt;

&lt;div class=&quot;output_subarea output_stream output_stdout output_text&quot;&gt;
&lt;pre&gt;_________________________________________________________________
Layer (type)                 Output Shape              Param #   
=================================================================
conv2d_1 (Conv2D)            (None, 32, 32, 32)        896       
_________________________________________________________________
activation_1 (Activation)    (None, 32, 32, 32)        0         
_________________________________________________________________
batch_normalization_1 (Batch (None, 32, 32, 32)        128       
_________________________________________________________________
conv2d_2 (Conv2D)            (None, 32, 32, 64)        18496     
_________________________________________________________________
activation_2 (Activation)    (None, 32, 32, 64)        0         
_________________________________________________________________
batch_normalization_2 (Batch (None, 32, 32, 64)        256       
_________________________________________________________________
max_pooling2d_1 (MaxPooling2 (None, 16, 16, 64)        0         
_________________________________________________________________
dropout_1 (Dropout)          (None, 16, 16, 64)        0         
_________________________________________________________________
conv2d_3 (Conv2D)            (None, 16, 16, 32)        2080      
_________________________________________________________________
conv2d_4 (Conv2D)            (None, 16, 16, 64)        18496     
_________________________________________________________________
activation_3 (Activation)    (None, 16, 16, 64)        0         
_________________________________________________________________
batch_normalization_3 (Batch (None, 16, 16, 64)        256       
_________________________________________________________________
conv2d_5 (Conv2D)            (None, 16, 16, 128)       73856     
_________________________________________________________________
activation_4 (Activation)    (None, 16, 16, 128)       0         
_________________________________________________________________
batch_normalization_4 (Batch (None, 16, 16, 128)       512       
_________________________________________________________________
max_pooling2d_2 (MaxPooling2 (None, 8, 8, 128)         0         
_________________________________________________________________
dropout_2 (Dropout)          (None, 8, 8, 128)         0         
_________________________________________________________________
conv2d_6 (Conv2D)            (None, 8, 8, 32)          4128      
_________________________________________________________________
conv2d_7 (Conv2D)            (None, 8, 8, 128)         36992     
_________________________________________________________________
activation_5 (Activation)    (None, 8, 8, 128)         0         
_________________________________________________________________
batch_normalization_5 (Batch (None, 8, 8, 128)         512       
_________________________________________________________________
LC1 (Conv2D)                 (None, 8, 8, 256)         295168    
_________________________________________________________________
R1 (Activation)              (None, 8, 8, 256)         0         
_________________________________________________________________
BN1 (BatchNormalization)     (None, 8, 8, 256)         1024      
_________________________________________________________________
max_pooling2d_3 (MaxPooling2 (None, 4, 4, 256)         0         
_________________________________________________________________
dropout_3 (Dropout)          (None, 4, 4, 256)         0         
_________________________________________________________________
red1 (Conv2D)                (None, 4, 4, 10)          2570      
_________________________________________________________________
average_pooling2d_1 (Average (None, 1, 1, 10)          0         
_________________________________________________________________
flatten_1 (Flatten)          (None, 10)                0         
_________________________________________________________________
activation_6 (Activation)    (None, 10)                0         
=================================================================
Total params: 455,370
Trainable params: 454,026
Non-trainable params: 1,344
_________________________________________________________________
&lt;/pre&gt;
&lt;/div&gt;
&lt;/div&gt;

&lt;/div&gt;
&lt;/div&gt;

&lt;/div&gt;
    

&lt;div class=&quot;cell border-box-sizing text_cell rendered&quot;&gt;&lt;div class=&quot;inner_cell&quot;&gt;
…
/usr/local/lib/python3.6/dist-packages/ipykernel_launcher.py:52: UserWarning: Update your `Conv2D` call to the Keras 2 API: `Conv2D(128, 3, name=&amp;#34;layer7&amp;#34;, padding=&amp;#34;same&amp;#34;)`
&lt;/pre&gt;
&lt;/div&gt;
&lt;/div&gt;

&lt;div class=&quot;output_area&quot;&gt;

&lt;div class=&quot;output_subarea output_stream output_stdout output_text&quot;&gt;
&lt;pre&gt;_________________________________________________________________
Layer (type)                 Output Shape              Param #   
=================================================================
layer1 (Conv2D)              (None, 32, 32, 32)        896       
_________________________________________________________________
BN1 (BatchNormalization)     (None, 32, 32, 32)        128       
_________________________________________________________________
rl1 (Activation)             (None, 32, 32, 32)        0         
_________________________________________________________________
layer2 (Conv2D)              (None, 32, 32, 64)        18496     
_________________________________________________________________
BN2 (BatchNormalization)     (None, 32, 32, 64)        256       
_________________________________________________________________
rl2 (Activation)             (None, 32, 32, 64)        0         
_________________________________________________________________
layer3 (Conv2D)              (None, 30, 30, 128)       73856     
_________________________________________________________________
BN3 (BatchNormalization)     (None, 30, 30, 128)       512       
_________________________________________________________________
rl3 (Activation)             (None, 30, 30, 128)       0         
_________________________________________________________________
drp1 (Dropout)               (None, 30, 30, 128)       0         
_________________________________________________________________
tb1 (Conv2D)                 (None, 30, 30, 32)        4128      
_________________________________________________________________
tb-BN1 (BatchNormalization)  (None, 30, 30, 32)        128       
_________________________________________________________________
tb-rl1 (Activation)          (None, 30, 30, 32)        0         
_________________________________________________________________
mp1 (MaxPooling2D)           (None, 15, 15, 32)        0         
_________________________________________________________________
layer4 (Conv2D)              (None, 15, 15, 64)        18496     
_________________________________________________________________
BN4 (BatchNormalization)     (None, 15, 15, 64)        256       
_________________________________________________________________
rl4 (Activation)             (None, 15, 15, 64)        0         
_________________________________________________________________
layer5 (Conv2D)              (None, 15, 15, 128)       73856     
_________________________________________________________________
BN5 (BatchNormalization)     (None, 15, 15, 128)       512       
_________________________________________________________________
rl5 (Activation)             (None, 15, 15, 128)       0         
_________________________________________________________________
drp2 (Dropout)               (None, 15, 15, 128)       0         
_________________________________________________________________
tb2 (Conv2D)                 (None, 15, 15, 32)        4128      
_________________________________________________________________
tb-BN2 (BatchNormalization)  (None, 15, 15, 32)        128       
_________________________________________________________________
tb-rl2 (Activation)          (None, 15, 15, 32)        0         
_________________________________________________________________
mp2 (MaxPooling2D)           (None, 7, 7, 32)          0         
_________________________________________________________________
layer6 (Conv2D)              (None, 7, 7, 64)          18496     
_________________________________________________________________
BN6 (BatchNormalization)     (None, 7, 7, 64)          256       
_________________________________________________________________
rl6 (Activation)             (None, 7, 7, 64)          0         
_________________________________________________________________
layer7 (Conv2D)              (None, 7, 7, 128)         73856     
_________________________________________________________________
BN7 (BatchNormalization)     (None, 7, 7, 128)         512       
_________________________________________________________________
rl7 (Activation)             (None, 7, 7, 128)         0         
_________________________________________________________________
d3 (Dropout)                 (None, 7, 7, 128)         0         
_________________________________________________________________
red1 (Conv2D)                (None, 7, 7, 10)          1290      
_________________________________________________________________
red-BN1 (BatchNormalization) (None, 7, 7, 10)          40        
_________________________________________________________________
rrl1 (Activation)            (None, 7, 7, 10)          0         
_________________________________________________________________
layer8 (Conv2D)              (None, 1, 1, 10)          4910      
_________________________________________________________________
flatten_1 (Flatten)          (None, 10)                0         
_________________________________________________________________
activation_1 (Activation)    (None, 10)                0         
=================================================================
Total params: 295,136
Trainable params: 293,772
Non-trainable params: 1,364
_________________________________________________________________
&lt;/pre&gt;
&lt;/div&gt;
&lt;/div&gt;

&lt;/div&gt;
&lt;/div&gt;

&lt;/div&gt;
    

&lt;div class=&quot;cell border-box-sizing text_cell rendered&quot;&gt;&lt;div class=&quot;inner_cell&quot;&gt;
…
